…
           2       0.80      0.81      0.80       407

    accuracy                           0.84      1221
   macro avg       0.84      0.84      0.84      1221
weighted avg       0.84      0.84      0.84      1221



Model architecture:
Model: "model_1"
_________________________________________________________________
 Layer (type)                Output Shape              Param #   
=================================================================
 input_3 (InputLayer)        [(None, 224, 224, 3)]     0         
                                                                 
 vgg16 (Functional)          (None, 7, 7, 512)         14714688  
                                                                 
 flatten_1 (Flatten)         (None, 25088)             0         
                                                                 
 dense_3 (Dense)             (None, 4096)              102764544 
                                                                 
 dropout_2 (Dropout)         (None, 4096)              0         
                                                                 
 dense_4 (Dense)             (None, 4096)              16781312  
                                                                 
 dropout_3 (Dropout)         (None, 4096)              0         
                                                                 
 dense_5 (Dense)             (None, 3)                 12291     
                                                                 
=================================================================
Total params: 134272835 (512.21 MB)
Trainable params: 119558147 (456.08 MB)
Non-trainable params: 14714688 (56.13 MB)







Model architecture:
Model: "model_1"
_________________________________________________________________
 Layer (type)                Output Shape              Param #   
=================================================================
 input_3 (InputLayer)        [(None, 224, 224, 3)]     0         
                                                                 
 vgg16 (Functional)          (None, 7, 7, 512)         14714688  
                                                                 
 flatten_1 (Flatten)         (None, 25088)             0         
                                                                 
 dense_3 (Dense)             (None, 4096)              102764544 
                                                                 
 dropout_2 (Dropout)         (None, 4096)              0         
                                                                 
 dense_4 (Dense)             (None, 4096)              16781312  
                                                                 
 dropout_3 (Dropout)         (None, 4096)              0         
                                                                 
 dense_5 (Dense)             (None, 3)                 12291     
                                                                 
=================================================================
Total params: 134272835 (512.21 MB)
Trainable params: 119558147 (456.08 MB)
Non-trainable params: 14714688 (56.13 MB)
_________________________________________________________________

# Data augmentation
train_datagen = ImageDataGenerator(
    rescale=1./255,
    # rotation_range=20,
…
    layer.trainable = False

print('Model architecture:')
finetuned_model.summary()

finetuned_model.compile(
    optimizer=Adam(learning_rate=0.0001), loss="categorical_crossentropy", metrics=["accuracy"]
)

Model architecture:
Model: "model_2"
_________________________________________________________________
 Layer (type)                Output Shape              Param #   
=================================================================
 input_5 (InputLayer)        [(None, 224, 224, 3)]     0         
                                                                 
 vgg16 (Functional)          (None, 7, 7, 512)         14714688  
                                                                 
 global_average_pooling2d (  (None, 512)               0         
 GlobalAveragePooling2D)                                         
                                                                 
 dense_6 (Dense)             (None, 4096)              2101248   
                                                                 
 dropout_4 (Dropout)         (None, 4096)              0         
                                                                 
 dense_7 (Dense)             (None, 4096)              16781312  
                                                                 
 dropout_5 (Dropout)         (None, 4096)              0         
                                                                 
 dense_8 (Dense)             (None, 3)                 12291     
                                                                 
=================================================================
Total params: 33609539 (128.21 MB)
Trainable params: 18894851 (72.08 MB)
Non-trainable params: 14714688 (56.13 MB)
_________________________________________________________________

history = finetuned_model.fit(
    train_generator,
    steps_per_epoch=train_generator.samples // train_generator.batch_size,
…
confusion_mtx = confusion_matrix(y_true, y_pred_classes)

print("Confusion Matrix:")
print(confusion_mtx)

# Print classification report
print("\nClassification Report:")
print(classification_report(y_true, y_pred_classes))

Model architecture:
Model: "model_2"
_________________________________________________________________
 Layer (type)                Output Shape              Param #   
=================================================================
 input_7 (InputLayer)        [(None, 224, 224, 3)]     0         
                                                                 
 vgg16 (Functional)          (None, 7, 7, 512)         14714688  
                                                                 
 global_average_pooling2d_1  (None, 512)               0         
  (GlobalAveragePooling2D)                                       
                                                                 
 dense_9 (Dense)             (None, 1024)              525312    
                                                                 
 dropout_6 (Dropout)         (None, 1024)              0         
                                                                 
 dense_10 (Dense)            (None, 1024)              1049600   
                                                                 
 dropout_7 (Dropout)         (None, 1024)              0         
                                                                 
 dense_11 (Dense)            (None, 3)                 3075      
                                                                 
=================================================================
Total params: 16292675 (62.15 MB)
Trainable params: 1577987 (6.02 MB)
Non-trainable params: 14714688 (56.13 MB)


Confusion Matrix:
[[389  18   0]
 [ 15 338  54]
 [  6  60 341]]

Classification Report:
              precision    recall  f1-score   support

           0       0.95      0.96      0.95       407
…
